assets/beginner.tflite (tflite, 306356 bytes, 8 tensors)

dense_31/bias f4 [2918]
0	0x3f08b0fc	0.53395057
1	0x00000000	0.0
2	0x3f047d59	0.51753765
3	0x3f0cbc4d	0.54974824
4	0x00000000	0.0
5	0x00000000	0.0
6	0x3ed946a1	0.42436698
7	0x3ed29ee4	0.4113685
8	0x3f13f510	0.5779581
9	0x3f2dcfce	0.6789521
10	0x3e675650	0.2259152
11	0xbb6bf0f3	-0.0036001771
12	0x3edd6c5c	0.43246734
13	0x00000000	0.0
14	0x3ebdd07d	0.37073126
15	0x00000000	0.0
16	0x3f00d78b	0.5032889
17	0x3e4ed7d1	0.20199515
18	0x3ec80f3f	0.39074132
19	0x00000000	0.0
20	0x00000000	0.0
21	0x00000000	0.0
22	0x3f0b57cc	0.5443084
23	0x3ef74466	0.4829437
24	0x3de4df07	0.111753516
25	0x3f0573a2	0.52129567
26	0x3f39f61e	0.7264117
27	0x3e3b7ad6	0.18308577
28	0x3edeaa8f	0.434895
29	0x3e8222b3	0.25417098
30	0x00000000	0.0
31	0x00000000	0.0
32	0x00000000	0.0
33	0x3f02e7af	0.5113477
34	0x00000000	0.0
35	0x3e4e3403	0.20137028
36	0x3c0b0950	0.008486107
37	0x3fc775e8	1.5582857
38	0x00000000	0.0
39	0x00000000	0.0
40	0x3f2c5785	0.67321044
41	0x00000000	0.0
42	0x3efd544f	0.49478385
43	0x00000000	0.0
44	0x3efd2dec	0.49449098
45	0x3de4e2b9	0.111760564
46	0x3ee9c118	0.4565513
47	0x3e92c335	0.28664556
48	0x3f03ead2	0.5153018
49	0x3f0c3d79	0.547813
50	0x3f02cf5d	0.5109766
51	0x3ee5ccf7	0.44882938
52	0x00000000	0.0
53	0x00000000	0.0
54	0x00000000	0.0
55	0x3ed644ae	0.41849273
56	0x3f239377	0.6389689
57	0x3f036b1d	0.51335317
58	0x3ede77fb	0.43450913
59	0x3ef87e3c	0.4853381
60	0x3f03167d	0.5120619
61	0x00000000	0.0
62	0x3efa1188	0.488415
63	0x3ef04288	0.4692576
64	0x3efadaea	0.48995143
65	0x3d9f8336	0.077886984
66	0x3f10a3c0	0.5649986
67	0x3ec07d10	0.37595415
68	0x3df50719	0.119642444
69	0x00000000	0.0
70	0x00000000	0.0
71	0x3eae835c	0.34084594
72	0x3f4e3fd2	0.8056613
73	0x00000000	0.0
74	0x00000000	0.0
75	0x00000000	0.0
76	0x3e941740	0.28923988
77	0x3e9fcc66	0.3121063
78	0x3f306c72	0.68915474
79	0x3f3258ad	0.6966656
80	0x3f0d70e4	0.5525038
81	0x00000000	0.0
82	0x3f05ec49	0.5231367
83	0x3e92182f	0.28534076
84	0x3ed2a614	0.41142333
85	0x3f0487aa	0.51769507
86	0x00000000	0.0
87	0x3f0a2245	0.5395854
88	0x3d821a3f	0.06352662
89	0x3ee1a116	0.4406821
90	0x3f03bdde	0.5146159
91	0x3eaed5a3	0.34147367
92	0x3ecc6b60	0.3992567
93	0x3eef3991	0.46723607
94	0x00000000	0.0
95	0x3e6905a5	0.2275606
96	0x3f0e59c3	0.55605716
97	0x3f01ebd4	0.5075047
98	0x3f05c76b	0.5225741
99	0x3f06c627	0.52646106
100	0x3ee4a540	0.44657326
101	0x3ef1715a	0.47156793
102	0x00000000	0.0
103	0x3ef787c3	0.48345765
104	0x3ede6dff	0.43443295
105	0x3f2bf5ef	0.6717214
106	0x3ee27041	0.44226268
107	0x00000000	0.0
108	0x3f174f5b	0.5910546
109	0x00000000	0.0
110	0x3d814fef	0.06314074
111	0x3ee68599	0.45023802
112	0x3f092a2b	0.5357997
113	0x3e0f0137	0.13965307
114	0x00000000	0.0
115	0x3e8b0042	0.27148634
116	0x00000000	0.0
117	0x00000000	0.0
118	0x00000000	0.0
119	0x3f09b0c3	0.5378534
120	0x3da38108	0.07983595
121	0x3edd2e26	0.4319927
122	0x00000000	0.0
123	0x3c38b778	0.011274211
124	0x3dfd4708	0.12367064
125	0x00000000	0.0
126	0x3f34922d	0.70535547
127	0x00000000	0.0
128	0x00000000	0.0
129	0x3f7d42ad	0.98929864
130	0x00000000	0.0
131	0x00000000	0.0
132	0x3f69efc1	0.9138146
133	0x00000000	0.0
134	0x3f2d240c	0.6763313
135	0x00000000	0.0
136	0x3ee7169b	0.45134434
137	0x00000000	0.0
138	0x00000000	0.0
139	0x3f042691	0.5162135
140	0x3f05faf9	0.5233608
141	0x3e905319	0.28188398
142	0x3ef786b2	0.48344952
143	0x00000000	0.0
144	0x3ec8c790	0.39214754
145	0x00000000	0.0
146	0x3eb7f4fd	0.359291
147	0x3e2a3fe3	0.16625933
148	0x3f1a6c88	0.60321856
149	0x3f0ae455	0.5425466
150	0x3e4fcc85	0.20292862
151	0x00000000	0.0
152	0x3f06b5d7	0.52621216
153	0x3ec6b6f5	0.3881146
154	0x3e9e963e	0.30974
155	0x3edeca16	0.43513554
156	0x00000000	0.0
157	0x00000000	0.0
158	0x00000000	0.0
159	0x3f2c92e1	0.6741162
160	0x3f0b05b8	0.543056
161	0x3f1352ba	0.57548106
162	0x3f0e570e	0.55601585
163	0x3f0b9435	0.5452302
164	0x00000000	0.0
165	0x3e23c46e	0.159929
166	0x3ea8e06a	0.32983714
167	0x00000000	0.0
168	0x00000000	0.0
169	0x3f0b6371	0.5444861
170	0x3de36bbe	0.111045346
171	0x00000000	0.0
172	0x3d021d15	0.031766016
173	0x3f12063a	0.5704075
174	0x3f3f9fa5	0.74852973
175	0x3f0bb184	0.5456774
176	0x3f014035	0.504886
177	0x3ef44f08	0.47716546
178	0x3f09f5e6	0.53890836
179	0x3e569614	0.20955688
180	0x3ee234ac	0.4418081
181	0x3f0dbcd8	0.5536628
182	0x3f0ec78d	0.5577324
183	0x3f088deb	0.5334155
184	0x3f12e0fe	0.5737456
185	0x3da45b6c	0.0802525
186	0x3ef144a7	0.4712269
187	0x3f132567	0.57478946
188	0x3eef55c8	0.46745133
189	0x3eb69e59	0.35667685
190	0x3f004caf	0.5011701
191	0x00000000	0.0
192	0x00000000	0.0
193	0x3f0abc9d	0.5419405
194	0x3f0bb4df	0.5457286
195	0x00000000	0.0
196	0x3f7035b8	0.9383197
197	0x00000000	0.0
198	0x3d021d13	0.03176601
199	0x3f1d88e6	0.61537015
200	0x3e607a76	0.21921715
201	0x3ecf9925	0.40546528
202	0x3efadabd	0.4899501
203	0x3f09b629	0.5379358
204	0x3dadc641	0.084850796
205	0x3f095e8b	0.53659886
206	0x00000000	0.0
207	0x00000000	0.0
208	0x3f4456b4	0.766948
209	0x00000000	0.0
210	0x3f304fd4	0.6887181
211	0x3e89a50d	0.26883736
212	0x3f07940c	0.52960277
213	0x00000000	0.0
214	0x3f087ce7	0.53315586
215	0x3bc9576e	0.0061444556
216	0x3f331e46	0.6996807
217	0x3f1cfbc1	0.61321646
218	0x3f192616	0.5982374
219	0x00000000	0.0
220	0x00000000	0.0
221	0x00000000	0.0
222	0x3f09de28	0.5385461
223	0x00000000	0.0
224	0x3f0a134b	0.5393569
225	0x3f000832	0.50012505
226	0x3f0ad836	0.5423616
227	0x3c964061	0.018341245
228	0x3f24c4a4	0.6436255
229	0x00000000	0.0
230	0x3f4ef6bc	0.80845237
231	0x00000000	0.0
232	0x3eee4a9e	0.46541303
233	0x3f0550d0	0.52076435
234	0x3f1214fa	0.5706326
235	0x3ee338e4	0.44379342
236	0x3eb04495	0.34427324
237	0x3f072a98	0.5279937
238	0x3f08ed42	0.53487027
239	0x3e04d954	0.12973529
240	0x3f016c00	0.5055542
241	0x3eed0a5e	0.46296972
242	0x3f1e4bb0	0.6183424
243	0x3e2a3730	0.16622615
244	0x3e1003c7	0.14063941
245	0x3f012b99	0.5045715
246	0x3f3994d7	0.72492737
247	0x00000000	0.0
248	0x3f108eb2	0.56467736
249	0x00000000	0.0
250	0x3ef2050d	0.47269478
251	0x3ed367d0	0.4129014
252	0x3ee15576	0.44010514
253	0x3f095ab3	0.5365402
254	0x3e7eee1d	0.2489552
255	0x3ebfed62	0.37485796

dense_30/bias f4 [24]
0	0xbc53e4a2	-0.012932928
1	0x00000000	0.0
2	0xbcf1cfa9	-0.029517965
3	0xbcf0d1eb	-0.029396972
4	0x412ed520	10.927032
5	0x00000000	0.0
6	0x00000000	0.0
7	0x412f3238	10.94976
8	0x412c63e9	10.774392
9	0x00000000	0.0
10	0x4133adee	11.229963
11	0x4129a7a4	10.603428
12	0xbd57af6c	-0.05265753
13	0x41285fe0	10.523407
14	0x413133e1	11.075166
15	0x412a283e	10.634825
16	0x410fe2f4	8.9929085
17	0x4126bf61	10.421723
18	0x41298bae	10.5966015
19	0x412d97b8	10.849541
20	0x4118980d	9.537122
21	0x410d967d	8.84924
22	0x41326625	11.149938
23	0x412e11c9	10.879342

dense_29/bias f4 [24]
0	0x41363c7e	11.389769
1	0x00000000	0.0
2	0x00000000	0.0
3	0x41374830	11.455124
4	0x412d9fe5	10.851537
5	0x00000000	0.0
6	0x4135e97b	11.369502
7	0x413096a2	11.036776
8	0x412f1b18	10.944115
9	0x41396d0e	11.589125
10	0x413707fe	11.439451
11	0x411fe1d9	9.992639
12	0x4130325e	11.012297
13	0x4133898f	11.221084
14	0x4136d51c	11.427029
15	0x41361cc8	11.382027
16	0x413703ff	11.438476
17	0xbcbec894	-0.023289002
18	0x412c366a	10.763285
19	0x4130b282	11.043581
20	0x4138d066	11.550879
21	0x00000000	0.0
22	0x40fa9531	7.830712
23	0x4128a210	10.539566

dense_28/bias f4 [24]
0	0xbdc803e2	-0.097663656
1	0x413dd5a9	11.864663
2	0x00000000	0.0
3	0xbff2ccee	-1.896879
4	0xbfd8fb13	-1.6951622
5	0x413dc7f1	11.861314
6	0x413c85ef	11.782699
7	0x413e219f	11.883208
8	0x41384162	11.515963
9	0x00000000	0.0
10	0x41165021	9.394563
11	0x41361d40	11.382141
12	0x413f0d59	11.940759
13	0xbf91cbe6	-1.139035
14	0x00000000	0.0
15	0x413f90cc	11.972851
16	0x41373915	11.451436
17	0x00000000	0.0
18	0x413f125d	11.941983
19	0x41403db4	12.015064
20	0x4126f356	10.434408
21	0x413f5838	11.959038
22	0x41349183	11.285525
23	0x412d5ecd	10.835645

sequential_7/dense_28/Tensordot/MatMul f4 [24, 5]
0	0xbe1529a8	-0.14566672
1	0x3ef114f2	0.47086293
2	0xbf15ba37	-0.58487266
3	0xbd705284	-0.058672443
4	0xbeb93b22	-0.36177927
5	0x4069b9c4	3.6519632
6	0x40ec2463	7.3794417
7	0x410cbabc	8.795589
8	0x413584c3	11.344913
9	0x4117cf25	9.488072
10	0xbe57d5b1	-0.2107761
11	0xbe7ceaff	-0.24699019
12	0xbeaf77a0	-0.34270954
13	0xbec758fd	-0.3893508
14	0xbe93c9da	-0.28864938
15	0x3fd99e8c	1.700151
16	0x3f026be0	0.50945854
17	0xbeb940dc	-0.36182296
18	0xbfe75701	-1.8073426
19	0xbf9bb903	-1.2165836
20	0x3fbbf605	1.4684454
21	0x3e8b3be0	0.27194118
22	0xbea059f6	-0.31318635
23	0xbfbb7030	-1.4643612
24	0xbf87af6a	-1.0600407
25	0x4083b084	4.1152973
26	0x40dc5bc2	6.886201
27	0x41099f94	8.6014595
28	0x4139504a	11.582102
29	0x4127f169	10.496438
30	0x404b4286	3.1759353
31	0x41049e81	8.288697
32	0x4119698c	9.588268
33	0x412cef2f	10.808394
34	0x4113c2ed	9.235089
35	0x408d3a3a	4.4133577
36	0x40ed0e16	7.4079695
37	0x4110382c	9.013714
38	0x412c9b3f	10.787902
39	0x4112cc82	9.174929
40	0x406ea12e	3.7285876
41	0x40bc8f33	5.8924804
42	0x410f94d4	8.973835
43	0x41214b72	10.080919
44	0x411e956e	9.911482
45	0xbe64445e	-0.22291705
46	0xbee67010	-0.45007372
47	0x3ddc8770	0.1076802
48	0xbeb6c360	-0.35695934
49	0xbec490b5	-0.38391653
50	0x404fe9db	3.2486484
51	0x40d398bb	6.612394
52	0x40eaf407	7.3422885
53	0x41071663	8.4429655
54	0x41087557	8.528647
55	0x4069434d	3.6447327
56	0x40d49ae5	6.643908
57	0x4106acf8	8.417229
58	0x41326f99	11.1522455
59	0x411e240f	9.883803
60	0x405d2e56	3.4559531
61	0x40db85d5	6.860087
62	0x410874ae	8.528486
63	0x413821a3	11.508212
64	0x41204e00	10.019043
65	0x3ff0c3b6	1.8809726
66	0x3f06949f	0.5257053
67	0xbf7755f8	-0.9661555
68	0xbfca8200	-1.5820923
69	0xbf95cde6	-1.170346
70	0xbe10be40	-0.14135075
71	0xbe84cc14	-0.2593695
72	0xbe66b830	-0.225312
73	0xbd96361c	-0.07334539
74	0x3c719820	0.014745742
75	0x4068f72b	3.640086
76	0x40dc7ecc	6.890478
77	0x4111a1af	9.101974
78	0x4130b5bd	11.04437
79	0x411f7ac0	9.967468
80	0x407d08b4	3.9536562
81	0x40f7584f	7.72953
82	0x41187691	9.528947
83	0x412686c6	10.407904
84	0x411c09e3	9.752414
85	0xbe5ac3c1	-0.21363737
86	0xbe7de65d	-0.24794908
87	0xbea15138	-0.31507277
88	0xbe77db3f	-0.2420473
89	0xbe8ecac2	-0.27889067
90	0x4088f44f	4.279823
91	0x40ec7213	7.388925
92	0x410bac80	8.729614
93	0x41343054	11.261799
94	0x411aa9dc	9.66647
95	0x406bed60	3.6863632
96	0x40f49dab	7.6442466
97	0x4110c62f	9.048385
98	0x41327aed	11.155011
99	0x4115a47a	9.352655
100	0x407006fd	3.7504265
101	0x408d94c4	4.42441
102	0x4103afcd	8.23042
103	0x41191c8b	9.5694685
104	0x4101d958	8.115562
105	0x40730f51	3.7978098
106	0x40db41c9	6.8517804
107	0x41053402	8.325197
108	0x41378fbb	11.47259
109	0x411edf2e	9.929487
110	0x40810a5a	4.0325136
111	0x40f42c52	7.63041
112	0x41111693	9.068011
113	0x4127e6d3	10.493854
114	0x412e4af2	10.893297
115	0x4064ffba	3.5781083
116	0x40cd1f4d	6.410071
117	0x4105ecbd	8.370297
118	0x411eea48	9.932198
119	0x411e4798	9.892479

sequential_7/dense_29/Tensordot/MatMul f4 [24, 24]
0	0xbf63c182	-0.88967144
1	0x411a5ce1	9.6476755
2	0x3e70cb2e	0.23515007
3	0xbf14d125	-0.5813163
4	0xbfa58e36	-1.2934024
5	0x411703f4	9.438465
6	0x411a780d	9.654309
7	0x4108332d	8.512494
8	0x411f5a89	9.959603
9	0xbd460c30	-0.048351467
10	0x40f8fab9	7.780606
11	0x411c7358	9.77816
12	0x4123f82b	10.248088
13	0xbf61c347	-0.88188595
14	0x3ea5cae9	0.3238137
15	0x411af5d3	9.685016
16	0x4118ec7c	9.557735
17	0x3e8a0c07	0.269623
18	0x4117645c	9.462002
19	0x411a0913	9.627215
20	0x410e976b	8.911967
21	0x411931b1	9.574632
22	0x411cd998	9.803123
23	0x411d0559	9.813806
24	0x3e3ca12a	0.18420854
25	0xbce7ada0	-0.028281033
26	0xbe17921c	-0.1480183
27	0xbe742c92	-0.23845127
28	0x3e32bd0e	0.17454931
29	0xbe54fba8	-0.20799124
30	0xbcc34100	-0.023834705
31	0x3e251e7e	0.16124913
32	0xbd80a1a8	-0.062808335
33	0x3c828270	0.015931338
34	0xbd86a58c	-0.06574544
35	0xbea0705a	-0.31335717
36	0xbea58b76	-0.32332963
37	0xbe82565c	-0.25456512
38	0xbe4fa62a	-0.2027823
39	0x3d729c88	0.05923131
40	0xbe95b4fd	-0.29239646
41	0xbe52ac12	-0.20573452
42	0xbdf8ab1a	-0.1214201
43	0xbd8d123c	-0.068882436
44	0x3e5cbde6	0.21556816
45	0xbeab28e9	-0.3342965
46	0xbe17e669	-0.14833988
47	0x3e535b32	0.20640257
48	0xbdd5b7fe	-0.10435484
49	0x3e81d81b	0.25360188
50	0xbd78f8f0	-0.06078428
51	0xbdc31660	-0.09525752
52	0x3e4da24a	0.2008144
53	0x3dec7f54	0.115477234
54	0xbe43228d	-0.19056149
55	0x3e12d872	0.1434038
56	0xbeb43120	-0.3519373
57	0xbe4982b0	-0.1967876
58	0x3e8e17d1	0.27752545
59	0xbe83fed2	-0.2578035
60	0xbe2dfd79	-0.16991223
61	0xbcb48900	-0.022037983
62	0xbe7055ea	-0.23470274
63	0x3e88af15	0.26696077
64	0xbea88ba5	-0.3291904
65	0x3c484360	0.012223095
66	0xbeae0bfb	-0.33993515
67	0x3dce5024	0.10073879
68	0xbeb16d80	-0.34653854
69	0xbd43be30	-0.0477888
70	0xbd40b0d8	-0.04704365
71	0x3e0ba6d6	0.13637862
72	0xbf958c8c	-1.1683517
73	0x4126b741	10.41974
74	0xbe65b8f7	-0.2243384
75	0x3ec7a263	0.3899108
76	0x3f01781b	0.5057389
77	0x411b6f30	9.714645
78	0x4127b06c	10.480572
79	0x411a1dac	9.632244
80	0x411a5c50	9.647537
81	0xbe2d2bc6	-0.1691123
82	0x4101c430	8.110397
83	0x41226147	10.148749
84	0x411d4429	9.829141
85	0xbeb5c30a	-0.35500365
86	0xbe8aa232	-0.2707687
87	0x41249a0c	10.287609
88	0x411d5277	9.832633
89	0x3e236bde	0.15959117
90	0x411ba9c5	9.728948
91	0x4127f0fc	10.496334
92	0x411e946f	9.911239
93	0x411a5b2c	9.647259
94	0x41191177	9.566764
95	0x4114ac32	9.29204
96	0xbf164997	-0.5870604
97	0x41134012	9.203142
98	0xbc8a7f90	-0.01690653
99	0xbeb29b26	-0.34883994
100	0x3dc5bf3b	0.09655615
101	0x41108ced	9.034406
102	0x410ae1f1	8.680161
103	0x410f47af	8.955001
104	0x412a43ad	10.641522
105	0xbdd3a838	-0.103348196
106	0x40f6ef46	7.716708
107	0x41197669	9.591409
108	0x4115efc5	9.3710375
109	0xbfa797de	-1.3093221
110	0x3e98ea75	0.29866377
111	0x411bf258	9.746666
112	0x410e9115	8.91042
113	0xbe4339fa	-0.19065085
114	0x410a8c44	8.659245
115	0x410b79f5	8.717275
116	0x41203243	10.012271
117	0x41166807	9.400397
118	0x41135732	9.208788
119	0x4114db81	9.30359
120	0x3e4752b2	0.1946514
121	0xbd20a470	-0.03921932
122	0x3e23075e	0.15920779
123	0xbe0d731d	-0.13813443
124	0x3e2ed02a	0.17071596
125	0xbe8fe953	-0.281077
126	0xbe225ec3	-0.15856461
127	0x3de1fc28	0.11034423
128	0xbdbbb694	-0.091656834
129	0xbe283662	-0.16426995
130	0xbe2f1988	-0.17099583
131	0x3d2347d0	0.039863408
132	0x3eadfef1	0.33983567
133	0x3d19e170	0.03756851
134	0xbea11cdd	-0.31467333
135	0x3ea50d71	0.32236817
136	0xbeaecea2	-0.34142023
137	0xbe64af01	-0.22332384
138	0xba865400	-0.0010248423
139	0xbe7dd30c	-0.24787539
140	0x3d1a3280	0.037645817
141	0xbdac0114	-0.08398643
142	0xbe834c9c	-0.25644386
143	0x3e10d4e6	0.14143714
144	0xbf2d1d00	-0.67622375
145	0x41273426	10.450232
146	0x3e831a87	0.25606176
147	0xbf4dfbb0	-0.8046217
148	0xbf899c90	-1.0750904
149	0x4113cf57	9.23812
150	0x411f391d	9.951444
151	0x41155b4b	9.334788
152	0x4128fe64	10.562107
153	0xbe9a9a9c	-0.30196083
154	0x41014836	8.08013
155	0x4123666a	10.212503
156	0x4123e212	10.242693
157	0xbfa3267a	-1.2746117
158	0x3e5532c2	0.20820144
159	0x41217364	10.090672
160	0x4112178f	9.130752
161	0x3e0a6b54	0.13517505
162	0x4119108a	9.566538
163	0x4122de12	10.179216
164	0x411d980e	9.849623
165	0x41236e1d	10.214383
166	0x4111ba8e	9.108046
167	0x411c5e2a	9.772989
168	0xbf78b1a7	-0.97146076
169	0x41168646	9.407782
170	0xbd94922c	-0.072544426
171	0xc03a0565	-2.9065793
172	0xc04cc9f4	-3.1998262
173	0x41227f03	10.156009
174	0x4100bafe	8.045652
175	0x4101df2d	8.116986
176	0x41145677	9.27111
177	0x3e9bddc3	0.30442628
178	0x410167ed	8.0878725
179	0x412474df	10.278533
180	0x41280e8d	10.503552
181	0xc02885a9	-2.633158
182	0x3eb27801	0.3485718
183	0x41193370	9.575058
184	0x4108b69d	8.544583
185	0x3d952724	0.07282856
186	0x4112f4d2	9.184771
187	0x41102ac3	9.01044
188	0x4113123b	9.191951
189	0x412a9a19	10.6626215
190	0x411663af	9.399337
191	0x411b1f3e	9.6951275
192	0xbfa2bd46	-1.2714012
193	0x4112d973	9.178088
194	0x3e9b3e23	0.30320844
195	0xbfb22c7a	-1.3919823
196	0xbe30fc5a	-0.17283764
197	0x41182e75	9.511342
198	0x410a7c00	8.655273
199	0x410ad374	8.676624
200	0x412fd772	10.990099
201	0x3dc13f24	0.09435871
202	0x41054fc1	8.331971
203	0x4121fe91	10.12465
204	0x4122ab88	10.166878
205	0xbffde04a	-1.9834073
206	0x3e2b44c2	0.16725448
207	0x411ec798	9.923729
208	0x410ea05a	8.914148
209	0xbe062ebd	-0.13103767
210	0x410bcb7c	8.737179
211	0x4109a353	8.602374
212	0x411b5b8a	9.709848
213	0x411bbf24	9.734165
214	0x4114fcd7	9.3117285
215	0x411d0d42	9.815737
216	0xbf840611	-1.0314351
217	0x411ff016	9.996115
218	0x3e0f7200	0.14008331
219	0x3d7133cc	0.058887288
220	0xbf228003	-0.6347658
221	0x41218556	10.095053
222	0x411427fc	9.259762
223	0x41197e81	9.593385
224	0x411989f8	9.596184
225	0x3d47bde8	0.048765093
226	0x41053ec0	8.32782
227	0x411c7996	9.779684
228	0x411f8c0a	9.971689
229	0xbf0fb4db	-0.5613534
230	0x3e2c4c5e	0.16826007
231	0x411e0489	9.876107
232	0x41175ea6	9.460608
233	0x3e9919ef	0.29902598
234	0x411ae64b	9.681224
235	0x41184122	9.515902
236	0x41236387	10.211799
237	0x411da7c0	9.853455
238	0x4117c921	9.486604
239	0x41170dd2	9.440874
240	0xbf605da3	-0.8764288
241	0x411c8399	9.782128
242	0xbe25b142	-0.161809
243	0xbee515b2	-0.44743115
244	0xbf2f1af9	-0.6840053
245	0x411e6648	9.899971
246	0x411c86cd	9.78291
247	0x41153c76	9.327261
248	0x41271ce6	10.444555
249	0x3e6d61d6	0.23181853
250	0x40fedee0	7.9647064
251	0x4126782e	10.404341
252	0x4121bf78	10.109245
253	0xbf65ea23	-0.8981039
254	0x3e808e35	0.25108495
255	0x41241b82	10.256716

sequential_7/dense_30/Tensordot/MatMul f4 [24, 24]
0	0x3de8e829	0.11372406
1	0xbea15172	-0.3150745
2	0xbb3ce180	-0.0028820932
3	0xbdd4701b	-0.10372945
4	0x3e8cdff5	0.27514616
5	0xbddb2afa	-0.107015565
6	0xbe66db79	-0.2254466
7	0x3e2f6dc3	0.17131715
8	0xbe6afa8c	-0.22947139
9	0xbe930a9f	-0.2871904
10	0xbe1619b2	-0.1465824
11	0x3b3a8f08	0.00284666
12	0xbdcb272c	-0.09919581
13	0x3ca650e4	0.020302244
14	0xbe64b62e	-0.22335121
15	0xbe69b3d8	-0.22822511
16	0x3df1e678	0.118115366
17	0xbea84a0f	-0.32869002
18	0xbe569661	-0.20955803
19	0xbe83d6d6	-0.25749844
20	0x3e8394f1	0.2569957
21	0xbe9846e8	-0.29741597
22	0xbe7dfddf	-0.24803875
23	0xbe39d19c	-0.18146366
24	0xbd49fd68	-0.049313933
25	0x3e3ad382	0.18244746
26	0xbea12cf9	-0.31479624
27	0xbe699bd8	-0.22813356
28	0xbe97efbc	-0.2967509
29	0xbea58aa8	-0.3233235
30	0x3e912c35	0.2835404
31	0x3e69a2ce	0.22816011
32	0x3e7d607e	0.2474384
33	0xbe8cc7fe	-0.27496332
34	0x3e4b2c42	0.19841102
35	0xbdb7ff58	-0.0898425
36	0x3e6202b2	0.2207134
37	0xbe994928	-0.29938626
38	0xbe90a0bb	-0.28247628
39	0xbe44d4c8	-0.19221795
40	0x3dc1419c	0.09436342
41	0x3ea23e23	0.31688032
42	0xbeb404f7	-0.35160038
43	0xbe819af1	-0.25313523
44	0xbd4d0f70	-0.05006355
45	0x3e2572d6	0.16157088
46	0x3d22d2e0	0.039751887
47	0x3d917ce8	0.07103902
48	0x3d94599d	0.07243655
49	0xbd565040	-0.052322626
50	0xbd803084	-0.062592536
51	0xbe37fc07	-0.17967235
52	0xbeadcf36	-0.33947152
53	0xbd9ac0fc	-0.0755634
54	0xbda6958d	-0.08133993
55	0xbcb1e6a0	-0.021716416
56	0xbe618b50	-0.220258
57	0xbd9a4769	-0.07533152
58	0xbeaf783b	-0.34271416
59	0xbd9fe368	-0.07807046
60	0xbe01f889	-0.12692465
61	0xbd045b68	-0.032313734
62	0xbe246567	-0.16054307
63	0x3e9bfbdb	0.30465588
64	0x3de9d95f	0.11418413
65	0xbe90c93c	-0.2827853
66	0xbeb4efef	-0.35339305
67	0xbe8c9a89	-0.2746165
68	0x3dadf77c	0.084944695
69	0x3d166320	0.036715627
70	0x3df941f9	0.121707864
71	0xbe9752ab	-0.29555258
72	0xbe21400a	-0.15747085
73	0x3be8d9c0	0.007106036
74	0xbe9241db	-0.2856587
75	0xbe665474	-0.22493154
76	0x3c5f3773	0.01362406
77	0x3e5f9236	0.21833119
78	0x3e9b97f5	0.30389372
79	0xbe4f6970	-0.20255065
80	0x3ea8dd72	0.3298145
81	0x3e06857e	0.1313686
82	0x3de51007	0.111846976
83	0xbe3b23af	-0.18275331
84	0x3dbc4a5e	0.09193872
85	0xbc4935f0	-0.012280926
86	0xbe38b96f	-0.18039487
87	0xbe9436eb	-0.2894815
88	0xbe56db68	-0.20982134
89	0xbd5a9f80	-0.053374767
90	0xbe77adae	-0.24187347
91	0xbe5d68ba	-0.21621981
92	0x3e36e380	0.17860222
93	0x3b930680	0.004486859
94	0xbe90d800	-0.28289795
95	0xbd766879	-0.060158227
96	0x411bc96f	9.736678
97	0x3de4f608	0.11179739
98	0x3d71dd30	0.05904883
99	0x411f868b	9.970347
100	0x41224e9c	10.144192
101	0x3e1d5c8a	0.15367332
102	0x411a498e	9.642958
103	0x411643f6	9.391592
104	0x4116b32c	9.418743
105	0x4119e968	9.619484
106	0x411ecd47	9.925117
107	0x41148caa	9.284342
108	0x411ee6d5	9.931355
109	0x41148ead	9.284833
110	0x41243afa	10.264399
111	0x411d76eb	9.841533
112	0x411f1036	9.941458
113	0xbe4eb42d	-0.20185919
114	0x41178ddf	9.4721365
115	0x411f95a6	9.974035
116	0x4120f484	10.059696
117	0xbcc8d6a0	-0.024516404
118	0x4106e89d	8.43179
119	0x411c2301	9.758546
120	0xbda7b3fc	-0.08188626
121	0x3e739d16	0.23790392
122	0xbe92b6b2	-0.2865501
123	0xbe96e478	-0.29471183
124	0xbe518930	-0.20462489
125	0x3e43e37a	0.19129744
126	0xbdbe09a8	-0.092791855
127	0xbcaad410	-0.020853072
128	0xbdea95ea	-0.11454375
129	0x3ce506d0	0.02795735
130	0xbeae5004	-0.34045422
131	0x3e9d028b	0.30666003
132	0xbdd3e110	-0.10345662
133	0x3eadc0a9	0.3393605
134	0xbe934404	-0.2876283
135	0x3ea196cb	0.31560358
136	0xbca06610	-0.019579917
137	0x3e016e56	0.12639746
138	0xbe4775e7	-0.1947857
139	0xbbb47b00	-0.005507827
140	0xbea128be	-0.31476396
141	0xbe85de73	-0.26146278
142	0xbe718a69	-0.23587956
143	0x3e98606d	0.29761067
144	0x3d1e0250	0.038576424
145	0xbea47329	-0.3211911
146	0xbe845292	-0.25844246
147	0xbe2b6bbb	-0.16740315
148	0x3dfa5ed0	0.12225115
149	0x3e947021	0.28991798
150	0xbd4babc0	-0.04972434
151	0x3da0fb84	0.07860473
152	0xbda9df34	-0.08294526
153	0x3dcf95d0	0.10135996
154	0x3d984514	0.074350506
155	0xbe230692	-0.15920475
156	0x3dd4a3b0	0.103827834
157	0xbdfe1c74	-0.12407771
158	0xbe6df923	-0.2323957
159	0x3d809aac	0.06279501
160	0xbe9adf33	-0.30248412
161	0xbd81e144	-0.06341794
162	0x3d8e4c34	0.06948128
163	0x3e71d05a	0.23614636
164	0xbe289046	-0.16461286
165	0xbad15c00	-0.0015972853
166	0xbdb2c0e8	-0.087282
167	0x3e21017a	0.1572322
168	0x412162ea	10.086649
169	0xbcfffb20	-0.031247675
170	0x3e32bd62	0.17455056
171	0x411ff1cf	9.996535
172	0x411bd2a1	9.738923
173	0x3dd84264	0.10559538
174	0x41222495	10.133931
175	0x4127055e	10.43881
176	0x41265720	10.396271
177	0x411fde4d	9.991773
178	0x4121169b	10.068019
179	0x41057397	8.34072
180	0x4118cb89	9.549691
181	0x4126b4cf	10.419143
182	0x41207e8d	10.030896
183	0x41223436	10.137747
184	0x4122d9d3	10.17818
185	0x3e99861a	0.29985124
186	0x411aa3c6	9.664984
187	0x4127ea40	10.49469
188	0x411bc072	9.734484
189	0x3e1241f2	0.14282969
190	0x40ed5bcd	7.417456
191	0x41236517	10.21218
192	0x4116e4f1	9.430894
193	0xbe750df0	-0.23931098
194	0xbe1f13c8	-0.1553489
195	0x411acc6d	9.674909
196	0x4126ce32	10.425341
197	0x3e9115ff	0.28337094
198	0x411eee31	9.933152
199	0x411e7cbd	9.905454
200	0x412157fa	10.083979
201	0x4116c453	9.422931
202	0x41158126	9.34403
203	0x4106cc0d	8.424817
204	0x412412d0	10.254593
205	0x4119f0da	9.621302
206	0x411dc669	9.86094
207	0x4126d65c	10.427334
208	0x41168ded	9.40965
209	0x3e5e1bfa	0.2169036
210	0x4118fba5	9.561437
211	0x41115c30	9.085007
212	0x411cc8f0	9.799057
213	0xbc789520	-0.015172273
214	0x40f33ec7	7.6014132
215	0x411026a0	9.00943
216	0xbd7f5498	-0.062336534
217	0xbe072ee3	-0.1320148
218	0x3e6aae32	0.22918013
219	0xbeb24991	-0.34821752
220	0x3dd6a9dc	0.10481617
221	0x3e69bb26	0.22825298
222	0xbe3de42d	-0.18544073
223	0xbc984d80	-0.018591642
224	0x3ca9af80	0.020713568
225	0x3e4cf24a	0.20014301
226	0xbe343dca	-0.17601696
227	0x3c172d00	0.009227037
228	0xbdfeb7f8	-0.12437433
229	0xbd935e50	-0.07195723
230	0xbe0bcf56	-0.13653311
231	0x3d975b04	0.07390407
232	0xbeb2be6d	-0.34910908
233	0xbe6dd694	-0.23226386
234	0xbb146b80	-0.0022647083
235	0xbe8035c6	-0.25041026
236	0xbe07dcb4	-0.13267785
237	0x3b869e40	0.0041082203
238	0x3e575812	0.2102969
239	0xbe8d4d84	-0.27598202
240	0x4127f600	10.497559
241	0x3dba2bcc	0.09090385
242	0x3e259e56	0.16173682
243	0x41238f91	10.22255
244	0x41276ed9	10.464562
245	0xbe81beea	-0.25340968
246	0x411e01bc	9.875423
247	0x411e0dd7	9.878379
248	0x4128da3e	10.553282
249	0x411f3914	9.951435
250	0x4121bb0c	10.108166
251	0x4108af3d	8.542783
252	0x41120cc9	9.128121
253	0x4125f47a	10.372187
254	0x411d54a9	9.833169
255	0x411b0941	9.689759

sequential_7/dense_31/Tensordot/MatMul f4 [2918, 24]
0	0xbc94ff4c	-0.018188141
1	0xbccd9af3	-0.0250983
2	0x3bfd85f0	0.007736914
3	0x3b3489b0	0.0027547888
4	0x3f0cb24f	0.5495958
5	0x3a4db140	0.00078465417
6	0xbbb40db0	-0.0054947957
7	0x3f0fb50e	0.5613564
8	0x3f0ec088	0.5576253
9	0x3be7ea48	0.007077489
10	0x3f185001	0.59497076
11	0x3f0fd19b	0.5617921
12	0x3cfc06e2	0.030765
13	0x3f0a8ed7	0.54124206
14	0x3f0a5d41	0.54048544
15	0x3f1302ed	0.5742634
16	0x3f17d852	0.59314454
17	0x3f09f182	0.53884137
18	0x3f14f5b0	0.5818739
19	0x3f1dfd99	0.61715084
20	0x3f1a54d0	0.60285664
21	0x3f18ac75	0.5963815
22	0x3f1cb7a8	0.6121774
23	0x3f146722	0.5796987
24	0x3c6ac1e4	0.014328454
25	0xbc40fb0c	-0.011778604
26	0xbc9de13d	-0.019272441
27	0xbaf76c00	-0.0018876791
28	0xbd1cd132	-0.03828544
29	0xbd1bfd8e	-0.038083605
30	0xbc94a40d	-0.018144632
31	0xbc866c66	-0.01640911
32	0x3a33a400	0.0006852746
33	0x3ce3d5b2	0.027811859
34	0x3d0ff2bd	0.035143603
35	0xbb9d21d8	-0.0047952943
36	0xbcafc784	-0.021457441
37	0x3d12abfd	0.035808552
38	0x3c6f5ef8	0.014610045
39	0x3d036183	0.032075416
40	0x3d16b547	0.036793973
41	0xbd166d94	-0.036725596
42	0xbc51982c	-0.012792628
43	0xbd1f5f40	-0.038909197
44	0xbd2f7600	-0.042837143
45	0xbc143be4	-0.009047482
46	0x3c3c33b4	0.011486936
47	0x3d0c4fb1	0.034255687
48	0xbd0704e8	-0.032963663
49	0x3cad60d6	0.021164339
50	0xbcff4a46	-0.031163346
51	0xbcdaeead	-0.026725138
52	0x3f0c0f6f	0.5471105
53	0xba9cb040	-0.0011954382
54	0x3c63847c	0.013886567
55	0x3f15ea93	0.58561057
56	0x3f0dd87b	0.5540845
57	0x3d100789	0.035163436
58	0x3f0770e8	0.52906656
59	0x3f043d1c	0.51655746
60	0x3bf51db0	0.0074803457
61	0x3f1a9ee9	0.6039873
62	0x3f17daa9	0.59318024
63	0x3f128c2e	0.5724515
64	0x3f159972	0.58437264
65	0x3f0737ab	0.5281932
66	0x3f0af0c1	0.5427361
67	0x3f185c3e	0.5951575
68	0x3f073a54	0.52823377
69	0x3f09d49c	0.5384004
70	0x3f10d363	0.5657255
71	0x3f058d0b	0.5216834
72	0xbc91b237	-0.017785175
73	0x3ad482a0	0.0016213246
74	0xbd1c5547	-0.038167264
75	0xbadf19c0	-0.0017021224
76	0x3f1f4c39	0.6222568
77	0xbd188516	-0.037236296
78	0xbaf2d640	-0.0018526986
79	0x3f13da3d	0.5775488
80	0x3f0bf6d0	0.5467348
81	0x3ce25ece	0.027633097
82	0x3f0bfb58	0.54680395
83	0x3f1ab66f	0.6043462
84	0x3c8f4e3a	0.017493356
85	0x3f1caa9d	0.61197835
86	0x3f21e884	0.63245416
87	0x3f15f420	0.5857563
88	0x3f23fcc7	0.6405758
89	0x3f11a2bb	0.5688893
90	0x3f0e59cf	0.5560579
91	0x3f0e211d	0.55519277
92	0x3f160a0d	0.58609086
93	0x3f1a894a	0.60365736
94	0x3f1ea3bf	0.61968607
95	0x3f218065	0.6308654
96	0xbc250f64	-0.01007447
97	0x3ca19e7a	0.019728888
98	0x3d1e8f75	0.03871103
99	0xbc7e6a92	-0.015528338
100	0x3cb03482	0.021509413
101	0xbd270f38	-0.040785998
102	0xbd264b77	-0.040599313
103	0xbc8c7c25	-0.01714904
104	0x3d1e52c3	0.038653146
105	0x3d1d7ac3	0.038447153
106	0xbd2607a8	-0.040534645
107	0x3d0b4a95	0.034006674
108	0xbb8ba000	-0.004261017
109	0x3d2b9eef	0.041899618
110	0x3ceefa82	0.029172186
111	0xbc71ea14	-0.014765281
112	0xbd165cc4	-0.036709562
113	0x3caa34fa	0.020777214
114	0xbc7d5e46	-0.015464371
115	0x3ced3ef2	0.028960679
116	0xbcae8a4a	-0.021306176
117	0xbcc22a3b	-0.023701778
118	0xbc825ace	-0.01591244
119	0x3d269bdf	0.040675994
120	0x3d2afaff	0.041743275
121	0xbcc7d989	-0.024395721
122	0x3c9e65b6	0.019335609
123	0x3bc8cda8	0.0061280318
124	0x3d38b191	0.045091216
125	0xbd25f566	-0.040517233
126	0xbc9856ec	-0.018596135
127	0xbc4b1aec	-0.012396555
128	0x3d1bf64d	0.038076688
129	0xbd127e0c	-0.03576474
130	0xbba08460	-0.004898593
131	0x3d0de733	0.034644317
132	0xbbf7bf50	-0.007560648
133	0x3d26143f	0.040546652
134	0xbce7ef32	-0.0283123
135	0x3d231451	0.039814297
136	0x3c894636	0.016757112
137	0xbd2316c5	-0.039816637
138	0x3c07e614	0.008294601
139	0xbc27e88c	-0.010248315
140	0xbc5ba104	-0.013405088
141	0xbb4d4380	-0.003132075
142	0x3cd8de1a	0.026473094
143	0xbc7e51c8	-0.015522428
144	0x3c8fbf16	0.017547172
145	0x3d2947b5	0.04132815
146	0xbd17b53c	-0.037038073
147	0x3cc150fe	0.02359819
148	0x3f02f2a1	0.5115147
149	0x3d18383b	0.037163
150	0xbc4706b0	-0.0121475905
151	0x3efe0d8e	0.49619716
152	0x3f016ed5	0.5055974
153	0x3c2e7920	0.010648996
154	0x3ee79422	0.45230204
155	0x3ee33a1e	0.44380277
156	0xbc644190	-0.013931647
157	0x3f05773b	0.52135056
158	0x3ee2724f	0.44227836
159	0x3f055e37	0.52096885
160	0x3ee65be2	0.44991976
161	0x3edf7deb	0.43650755
162	0x3f007cdf	0.5019054
163	0x3efa6423	0.48904523
164	0x3efcf9c4	0.49409306
165	0x3ef1d2ac	0.47231042
166	0x3eef7a52	0.4677301
167	0x3ef76b67	0.4832413
168	0xbca17bbf	-0.019712327
169	0xbd10985c	-0.03530155
170	0x3c1b3000	0.009471893
171	0xbd2bcedf	-0.041945335
172	0x3eec09d6	0.46101254
173	0xbbea9050	-0.0071583167
174	0xbd038f09	-0.03211883
175	0x3ef84ccf	0.484961
176	0x3f112007	0.56689495
177	0x3d08e71f	0.03342354
178	0x3ed84b46	0.4224493
179	0x3ee9a7b8	0.45635772
180	0x3d26c061	0.04071081
181	0x3ee3562a	0.44401675
182	0x3f147896	0.579965
183	0x3f0ffcd2	0.5624515
184	0x3f1db2cc	0.6160095
185	0x3e719535	0.23592074
186	0x3f3fd1f5	0.74929744
187	0x3f114292	0.56742203
188	0x3eeb8712	0.46001488
189	0x3f15c2aa	0.5850016
190	0x3ee8af4a	0.45446235
191	0x3ec49408	0.3839419
192	0x3cb57c36	0.022153955
193	0x3cb93ffe	0.022613522
194	0xbcf0dffa	-0.029403675
195	0xbce77867	-0.028255654
196	0x3f20a8db	0.62757653
197	0x3c96cb6a	0.018407542
198	0xbd1aba46	-0.0377753
199	0x3f17ed75	0.59346706
200	0x3f0f29ce	0.55923164
201	0xbd03fb8b	-0.032222312
202	0x3f0ae924	0.54261994
203	0x3f0a6d1c	0.5407274
204	0xbc6d53e0	-0.014485329
205	0x3f1608de	0.5860728
206	0x3f1bdba1	0.60882
207	0x3f16ff54	0.5898335
208	0x3f16b4de	0.5886973
209	0x3f1bdb7d	0.6088179
210	0x3f1fc533	0.6241028
211	0x3f179ced	0.59223825
212	0x3f189967	0.59609073
213	0x3f19bb4a	0.60051405
214	0x3f19fd51	0.60152155
215	0x3f12d9e1	0.57363707
216	0xbaadee60	-0.0013269894
217	0x3bc3d738	0.005976584
218	0x3c0fdb60	0.00878033
219	0x38dcf800	0.00010536611
220	0x3f3a43a0	0.7275944
221	0xbbb228f0	-0.005437009
222	0xbd368919	-0.04456434
223	0x3f2974cf	0.6619386
224	0x3f2931c3	0.66091555
225	0xbd126932	-0.035744853
226	0x3f2bf11c	0.6716478
227	0x3f3cd2c3	0.73759097
228	0x3d2af393	0.041736197
229	0x3f2f8717	0.68565506
230	0x3f33b5c4	0.7019923
231	0x3f26dc82	0.6518022
232	0x3f22068d	0.63291246
233	0x3f3b3f04	0.7314303
234	0x3f3334e8	0.70002604
235	0x3f278d2b	0.6544978
236	0x3f3f5d7e	0.7475203
237	0x3f2b0a15	0.6681226
238	0x3f34733d	0.7048834
239	0x3f317ba0	0.6932926
240	0xbc21bb20	-0.009871274
241	0x3c9113a2	0.017709557
242	0x3d1b250b	0.037877124
243	0x3cb6dc82	0.022321943
244	0x3e877ff7	0.26464817
245	0xbd0ba160	-0.034089446
246	0xbca15829	-0.019695358
247	0x3e8d1b7c	0.2756003
248	0x3e67cbda	0.22636357
249	0xbd250ec4	-0.040297285
250	0x3e658d52	0.2241719
251	0x3e871a80	0.26387405
252	0xbc58331c	-0.013195779
253	0x3e719c05	0.23594673
254	0x3e6bf965	0.23044355
255	0x3e80b6e4	0.25139534
