assets/my_model.tflite (tflite, 10672 bytes, 6 tensors)

dense_5/bias f4 [5]
00000000: 029b 653f 0000 0000 0000 0000 9394 2240
00000010: b31d 653f
0.8968965 0.0 0.0 2.5403183 0.8949844

dense_4/bias f4 [24]
00000000: 8b88 2f40 33aa e5be 79dc 1440 3343 8a3f
00000010: 9fb7 0b3f d051 2340 c0dd 513e 7ea0 36be
00000020: e1ae 0c40 a76d 01be 175f 563f 22e5 26bf
00000030: 01fb 00be 409e 01bd e16d b4bd cfbd b0bd
00000040: 1edb 243f 897b d33f ded8 2f40 5add b83f
00000050: 3474 22c0 0000 0000 9a7b 1640 be3f 353f
2.742709 -0.44856414 2.3259566 1.0801758 0.5457706 2.5518684 0.20494747 -0.1783466
2.1981738 -0.12639485 0.83738846 -0.6519338 -0.1259575 -0.03164506 -0.0881002 -0.08629953
0.64396846 1.6522075 2.7476115 1.4442551 -2.5383425 0.0 2.351294 0.7080039

dense_3/bias f4 [24]
00000000: ffc5 143d 135a 383f b7e9 0640 3032 263e
00000010: 0000 0000 2bed 753e 1477 36c0 9e20 333f
00000020: cf78 3d40 81d1 1b40 0000 0000 84cb 71bd
00000030: 729e 0d3f 0b56 1a3e 3464 36c0 7239 653f
00000040: f5ff 933f 7062 1c40 52fb ba3e 0000 0000
00000050: 03ee 963f e262 0c3f af20 49c0 fe8a 9f3e
0.036321636 0.7201244 2.1080148 0.16230083 0.0 0.24016254 -2.851018 0.69971645
2.9604986 2.434662 0.0 -0.05903198 0.55319893 0.15071885 -2.849866 0.8954078
1.1562487 2.4435081 0.36519867 0.0 1.1791385 0.54838383 -3.1426198 0.3116073

sequential_1/dense_3/Tensordot/MatMul f4 [24, 5]
00000000: a3e0 73bd a51a 273f 019e 07be ab77 b33b
00000010: 9774 c9be f889 a8ba 0a3b 13bf ddc8 123f
00000020: b387 a5ba 80de 2dbb d925 8bbe e974 dd3e
00000030: 3e17 803c c8ad cbbb b385 963d e8ca a63e
00000040: ca02 a23e c3ed 6ebf c8a9 87ba f153 b0be
00000050: 94dc b9be 2754 c4be 1443 b6bd 546b a0be
00000060: ac3a 4fbe ec7e 923e b231 91bf 65f6 bfbe
00000070: 73f4 423a c5d8 b1bc 5d57 3e3e bf2d 92be
00000080: 194c 27bd 126d 5d3c 14b5 4abd 2470 ac3d
00000090: f277 f23d 00cf d33e d74f 353a b6b7 92be
000000a0: 6d9d 0cbd 0e89 d73e 3195 81bd 5272 073e
000000b0: 5375 283d 506c 043e 2f43 9ebc 40d4 893e
000000c0: 7973 fcbd ed89 7b3d 84af a3be 8837 15be
000000d0: 65a2 dbbe 438f a0be 1868 ae3d 0f40 9abd
000000e0: dfb9 493e 860e 99be 55bd 2bbc a6eb 113e
000000f0: 4081 de3e d530 eebd a412 a2bd a9be a13c
00000100: 2335 b6be 9dad 0ebf 6d81 ae3e 4504 283d
00000110: 5be0 0abd 5564 9bbe 6b18 443e bfc7 bbbe
00000120: 8beb bb3e 5cac a43b 3147 40bd 0d5d 863e
00000130: 3d98 5f3e 14fc 73be 7280 dc3c adaf 90bd
00000140: 7480 f33d 4874 873d ba10 8f3c 2f86 babd
00000150: 94a4 0fbf b7d9 363e 7740 553e dac1 793d
00000160: 8cd0 5a3c 4fed 7d3d 368a 1b3d 02d2 c4be
00000170: 3b4a 86bd 1c1b b7bd 8616 913e 78bf afbe
00000180: 80d3 513d b041 02bd a9fa 79be d460 d0bd
00000190: 784d 8e3b 2bd7 10bf 393e 3f3d 4996 c73d
000001a0: d071 1b3e 3c3e f7ba 8940 d4bd d82f 903e
000001b0: c277 5fbb b1e7 87be 878e f33d 462e 403d
000001c0: 0ae4 863e 122d b2bd d2ae a9bd 1ec5 9fbe
000001d0: ea78 ca3a 28fe dbbe ee5d 8a3e 9f94 a6be
-0.059540402 0.6527503 -0.13243867 0.005476912 -0.39346763 -0.0012858501 -0.5751196 0.57337743
-0.0012628942 -0.0026530325 -0.27177313 0.43253258 0.015636083 -0.0062157847 0.0734972 0.3257668
0.31642753 -0.93331546 -0.0010350281 -0.34439042 -0.363011 -0.38345453 -0.08899513 -0.31331885
-0.20237225 0.2861246 -1.1343291 -0.37492672 0.00074369385 -0.02170981 0.18588014 -0.28550526
-0.040844057 0.013514774 -0.049489096 0.084198266 0.11839284 0.41368866 0.0006916499 -0.28655785
-0.03432982 0.42096752 -0.06327284 0.13227203 0.041127514 0.12931943 -0.019319145 0.26919746
-0.12326712 0.061410833 -0.31969845 -0.14571965 -0.42897335 -0.313593 0.08515948 -0.075317495
0.1969981 -0.29893893 -0.010482152 0.14250049 0.43457985 -0.11630408 -0.07913712 0.019744234
-0.35587415 -0.5573366 0.3408312 0.041019697 -0.03390537 -0.30349985 0.1914994 -0.36675832
0.36703143 0.0050254297 -0.046942893 0.26242867 0.21835418 -0.23826629 0.026916716 -0.070647575
0.11889735 0.06613976 0.01746403 -0.09107625 -0.561105 0.17856489 0.20825373 0.060975887
0.0133553855 0.061993893 0.037973605 -0.38441473 -0.06557127 -0.089407176 0.28337497 -0.34325767
0.051227093 -0.031800926 -0.24412026 -0.101747185 0.004342731 -0.5657832 0.0466902 0.097454615
0.15180135 -0.0018863152 -0.103638716 0.28161502 -0.003409848 -0.26543954 0.11892419 0.04691913
0.26345855 -0.08700003 -0.082852975 -0.31205076 0.0015447412 -0.42967343 0.27024788 -0.32535264

sequential_1/dense_4/Tensordot/MatMul f4 [24, 24]
00000000: 3c79 ae3e 996c 303f 79a8 bb3e 6d22 30be
00000010: 786f 453d 88fc babe 0221 0a3d 9c34 fc3d
00000020: e679 343e 2d66 123e 5869 1fbd d926 35be
00000030: c4f2 f73d da1c 993e a81c d4be a608 803e
00000040: 6806 b7bd d3d5 cb3d 22a7 1a3e 2863 853d
00000050: 76a9 e1bd 270b 033b d119 0abe 9b65 c6be
00000060: f33a 40be a531 5bc0 8226 be3d d47a d23d
00000070: 64cc c4bd 4bca ee3e 678b f7be 9062 b43e
00000080: 7fde 1f3e 6d57 093e f942 a23e 397e 0cbf
00000090: 90ef aa3d bbaa 1f3e 8ced c43e b3d5 c9be
000000a0: 920a 033e 6c80 4e3d 29ff 543d 2490 86be
000000b0: f380 24bd d33c 3d3e cebf 22be 8350 2b3e
000000c0: ab27 33be 3434 b93e 236e 683c 4e54 8dbe
000000d0: 40af 9c3d 000e ab3d d69f 85be 80ed b93d
000000e0: 8f8f ad3e 274f 643e d4a7 acbe 7f83 93be
000000f0: a3e2 f23d d7af bbbe 2971 debd 5505 2f3d
00000100: 9da9 58bd c376 51bb 8276 903e e02c af3c
00000110: 9957 173f ce1a babd e707 f5bd ee41 4e3d
00000120: f360 a9be 3aa3 04bf 0f05 3a3d 8710 f13e
00000130: 7766 9f3e 6fdc 35be 120c b4bd 4565 34bf
00000140: ab32 083d c575 4d3e 2848 4b3d fd69 9b3e
00000150: fc31 cdbc 4994 083f 4921 91bf 0524 6f3e
00000160: 4aec 673d a721 d23d f16f 19be 1cfe 90bd
00000170: 556e 50be fd7d 8dbd e8b5 77be 8418 253d
00000180: 43e6 96bf d94b 6b3e 6c27 54bf a5fb 34be
00000190: c8d5 93be c779 713e 444c 5b3e 4bbf 1fbe
000001a0: 190f 51be 8e8a ce3d 4695 a3be 2b30 f4be
000001b0: 555c 823e afca babe 4b05 a13d ed57 423f
000001c0: 1a6f 84be 4157 73be 07f6 d7be 58bd 913d
000001d0: 6763 a3bd 6586 29bf bff2 253c 9458 2bbe
000001e0: 19f6 a9bd c411 5a3d a20f 27bd bdf9 323d
000001f0: 02cf 623e c027 a2be 2849 d83c 2a46 d93b
00000200: 41b2 5b3d fd5d 3e3e f43e b4bd dd76 28be
00000210: e6dd 95bd 3ac9 f43d f585 d13d e740 183d
00000220: a90b 903e 0597 3c3e 719f 3b3e 4b4f 98be
00000230: e00b 2c3c 50e2 21be e14f d2bc 96b1 c43c
00000240: 0699 91bd 414a 6a3e b5f9 d5bd e02e 0c3f
00000250: 9cca 99be 3a4a 293f 4f17 983e 128c eabe
00000260: d04d d63d 5278 51be f4b2 b83d 6088 a83e
00000270: 1cef 2ebe c030 193d 314e a63e fe6b 32be
00000280: 41df 0a3f d3da 8f3c 2e6f 4cbe 4477 093e
00000290: 9aeb 49be a717 003f 61b7 a4be e720 683e
000002a0: 09df a3be 8d7b 8d3d 90bb c5be e063 813d
000002b0: f777 9b3e 5eee e6bd dd95 c5be 9de3 63be
000002c0: 8970 17be 3308 163e 8c3e 76be 09bb 7f3e
000002d0: 356b 41be ddd6 913c c8a9 613d 3ec7 7bba
000002e0: 18bb e23d 69a1 b9be 7434 87be 65c7 69be
000002f0: 306b 073e 3287 4d3d aed1 47be 22eb 13bb
00000300: 08e8 983e 8e46 b3bc 34bd 6f3d e9d8 fcbd
00000310: 3572 a0be 2d83 a93e b499 66be 32e8 e13e
00000320: 0821 b0bd 0fde 323b 2738 84be 43e6 703d
00000330: 3be4 3b3c 0ac8 2a3d f80c 74bd 29d5 323c
00000340: 8bb0 cdbd 1ee3 0e3d b6bf 49bf b9ea 96be
00000350: bdb9 02bf ffdc 89be d0c4 4e3e 0998 f83e
00000360: 1791 98bd 233b bbbd 0f9e 2c3d 44eb 79be
00000370: 705b 933c f989 fb3b e8a5 5bbe 1cf4 6d3e
00000380: 013f a0be 7c53 1ebd fe95 293e d751 8fbe
00000390: 8eda 333e 7dae 2bbe 70f8 dabd 73ee 81be
000003a0: 7a6e ca3d 77c6 b2be 8dc5 08be 4974 ab3e
000003b0: fb43 453e c495 283e d7f3 16be 1d65 8d3e
000003c0: ca00 e2be a02f 343e 33e6 82bf 7053 fe3e
000003d0: 1ea9 4c3e 416f 8bbe 3e1e a63e 93ad 77bd
000003e0: 18de 28be e387 e63a 48ad 2dbe ed1c 16bf
000003f0: 4e5b c03e a08f 333e 2fab d53c 0bd3 b03e
0.3407687 0.68915707 0.36651972 -0.17200632 0.048202008 -0.3652079 0.033722885 0.12314722
0.17624626 0.1429679 -0.038918823 -0.176906 0.12106851 0.29904824 -0.41428113 0.25006598
-0.08936769 0.09952893 0.15102819 0.06513053 -0.1101865 0.001999566 -0.1348641 -0.38749394
-0.18772487 -3.424905 0.092846885 0.10277334 -0.09609297 0.46638712 -0.48348543 0.35231447
0.1561222 0.13412257 0.3169172 -0.548801 0.08346474 0.15592472 0.38462484 -0.39420852
0.12797001 0.05041544 0.052001152 -0.26281846 -0.040162038 0.18480234 -0.1589348 0.16729932
-0.17495601 0.3617264 0.014186415 -0.27603382 0.07650614 0.0835228 -0.26098508 0.09078503
0.3389859 0.22295819 -0.33721793 -0.2881126 0.11859634 -0.36657593 -0.10861427 0.042729694
-0.05289613 -0.0031961657 0.28215414 0.021383703 0.5911804 -0.09087144 -0.11964398 0.050355844
-0.3308178 -0.51811564 0.04541498 0.47082922 0.31132862 -0.1775987 -0.08791365 -0.70467025
0.033251446 0.20064457 0.04962936 0.303543 -0.025048248 0.53351265 -1.1338283 0.23353584
0.056621827 0.10260325 -0.14984109 -0.070797175 -0.20354588 -0.06908796 -0.24190485 0.040306583
-1.178902 0.22978152 -0.82872653 -0.1767412 -0.2887404 0.2358161 0.21415812 -0.15600316
-0.20415916 0.10085021 -0.31949824 -0.47693 0.2546107 -0.3648276 0.07862338 0.75915414
-0.25866014 -0.23763753 -0.4217989 0.071161926 -0.07977944 -0.66220695 0.010128676 -0.16733009
-0.082988925 0.0532396 -0.040786393 0.0436952 0.2214928 -0.31670952 0.026402071 0.0066306787
0.053636793 0.18590541 -0.0880107 -0.16451593 -0.073177144 0.119524434 0.102306284 0.03717127
0.28133896 0.18416984 0.18322541 -0.29747996 0.010500878 -0.15808988 -0.025672855 0.02401046
-0.07109265 0.22879888 -0.104480185 0.54759026 -0.3003739 0.66128886 0.29705283 -0.4580999
0.1046406 -0.20456055 0.090185076 0.32916546 -0.170834 0.037400007 0.3248153 -0.17424008
0.5424691 0.017560398 -0.19964287 0.13424402 -0.19718781 0.5003609 -0.32171157 0.22668801
-0.320061 0.06908331 -0.3861966 0.06317878 0.30364963 -0.11275934 -0.385909 -0.22254796
-0.14789023 0.14651565 -0.24047297 0.24973692 -0.18888552 0.01780265 0.055093557 -0.00096045795
0.110708416 -0.3625596 -0.26407206 -0.22829969 0.13224483 0.05017776 -0.1951358 -0.002257057
0.29864526 -0.021884229 0.058530048 -0.1234606 -0.31337133 0.33107892 -0.2251957 0.44122463
-0.0860005 0.0027293002 -0.2582409 0.058813345 0.011467989 0.04169468 -0.05958268 0.010915079
-0.100434385 0.034884565 -0.7880815 -0.29475954 -0.51064664 -0.2692642 0.20192266 0.48553494
-0.07449549 -0.09142139 0.042142924 -0.24406153 0.017987937 0.0076763597 -0.21450007 0.23237652
-0.31298068 -0.038653836 0.16561124 -0.27992126 0.17563841 -0.16765781 -0.10691917 -0.25377235
0.09884353 -0.34917042 -0.1335661 0.33487156 0.19264214 0.16463381 -0.14741455 0.27616206
-0.44141227 0.17596292 -1.0226501 0.49673033 0.19986388 -0.27233317 0.32444948 -0.060468268
-0.16490972 0.0017588105 -0.16960633 -0.5863789 0.3756966 0.17535257 0.026082603 0.34536013

sequential_1/dense_5/Tensordot/MatMul f4 [5, 24]
00000000: be16 4b3e a6ed 0cbf c43d cd3e e9a7 dc3e
00000010: c2fe 893d d37e 653c aaf3 513e f10d 673e
00000020: acb9 2e3e 2b57 bd3c e42f ad3c 1aa1 91be
00000030: 28e6 753e e81f ca3e cc44 85bd fe05 983d
00000040: f600 943e a754 c03e 9900 723e 3252 54be
00000050: 9e49 163e 285c 843d ffb1 5bbe 42e6 5a3d
00000060: 8551 adbe 1cd7 31be be5f 99be fef1 9e3e
00000070: ceb5 bd3e 7aaf 2ebe 4ce9 ac3e 3e2c 0fbe
00000080: 5e95 11be 88f7 b63d f0cb 92be 90a2 d5be
00000090: bce9 413e 0849 4e3e 8985 91be 220d b93e
000000a0: 9c0b 413e f8e1 353d bf75 dabe 44df 2cbe
000000b0: 640e 10be b6c9 d6be b6f2 2fbe 647c a4bd
000000c0: 00c5 d5bb 4ad5 84be 0816 aebe d443 f2bd
000000d0: 5add 7fbe 8450 0cbe 18cf 4abe 30b2 9ebc
000000e0: 70af 92bd 662b e73e 0e92 be3e 00b7 c2bb
000000f0: 7042 dfbd 78ba 723e 9034 593d c4a0 77be
00000100: b02d d9bd 30bd 12bd 7ca7 b43e a785 d3be
00000110: 22ce a1be e871 23bd 50e4 d73d b8f9 b43e
00000120: 1da2 843e 4f8b 10bf 3117 a53d c1bd 663e
00000130: 4ba3 3d3e b8a5 8a3e a617 0dbe b41d 543e
00000140: f4b7 5a3e cb4f 43bd bf70 833e 8aa2 1bbe
00000150: 62f7 dcbc f53a 74bd cf51 33be 8356 27be
00000160: f3f5 843d 0136 173e 043c 2f3e 304e 1b3d
00000170: 3a98 68be c0eb e5bb a7a7 833e 7fae 993f
00000180: d820 b93e 43c6 11bf 7ec6 9b3d 393a f83d
00000190: 9337 1f3e b700 803e 5446 833c 5483 8cbe
000001a0: b333 483d 461d a5bc 5c7b 823e 1ec7 cfbd
000001b0: 08c8 8a3c 6cb7 5a3e c807 d83e cb6e bc3e
000001c0: 000c e53e a1be 363d a876 293e f75a 683d
000001d0: 5d13 debd b65b 67be 32ea 823e 812e 5f3e
0.19832894 -0.5505012 0.40086186 0.43096855 0.06738044 0.014007288 0.20503107 0.22563912
0.17063016 0.023112854 0.021141 -0.28443223 0.24013579 0.39477468 -0.065072626 0.07423018
0.28906983 0.37564585 0.2363304 -0.2073448 0.1467652 0.0646289 -0.21454619 0.053442247
-0.33851257 -0.17367214 -0.29955858 0.31044 0.37052768 -0.17059126 0.3377174 -0.13981721
-0.14217135 0.089339316 -0.28671217 -0.41725588 0.18936819 0.20145047 -0.28422192 0.36142832
0.18852085 0.044404954 -0.42667958 -0.16882044 -0.1406799 -0.41950768 -0.1718243 -0.08031538
-0.0065237284 -0.25943977 -0.34001184 -0.118293434 -0.24986783 -0.1370259 -0.19805562 -0.019372076
-0.07162368 0.45150298 0.37220806 -0.0059422255 -0.10901344 0.23703945 0.053028643 -0.24182421
-0.10604417 -0.035824955 0.3528403 -0.41312906 -0.3160258 -0.03990355 0.10541594 0.3534677
0.25904933 -0.5646257 0.08061064 0.22533323 0.18519323 0.27079558 -0.13778552 0.20714456
0.21359235 -0.04768352 0.25671956 -0.15198722 -0.02697343 -0.05962654 -0.17511676 -0.16341595
0.064922236 0.14766695 0.17112738 0.037916362 -0.2271432 -0.007016629 0.25713846 1.2006377
0.3615787 -0.5694315 0.07606219 0.1212048 0.15548544 0.25000545 0.016024746 -0.27443945
0.04887743 -0.02015556 0.2548474 -0.101454005 0.016941085 0.21359032 0.42193437 0.36803278
0.44735718 0.04461539 0.1654917 0.056727376 -0.10843537 -0.22593579 0.25569302 0.21795084
